trained_models/snr_3/HRCAE.pth (torch, 152732 bytes, 64 tensors)

incep1.encoder.0.0.weight f4 [16, 3, 3]
0	0x3d874ddd	0.06606648
1	0xbe9971d5	-0.2996966
2	0x3bdfeee3	0.0068338974
3	0x3ea17dab	0.3154119
4	0x3d23ea48	0.04001835
5	0xbd8a05b5	-0.0673937
6	0x3d5a4fa5	0.05329861
7	0xbdbb64f9	-0.091501184
8	0xbe12ecf1	-0.14348198
9	0xbb93f734	-0.004515553
10	0x3cd6b89d	0.026211077
11	0x3cbfb1cf	0.023400215
12	0x3de0c95f	0.109759085
13	0xbebb16f3	-0.36540946
14	0xbeb7d9f6	-0.35908478
15	0x3d8ce692	0.06879915
16	0x3e0a0e45	0.13482006
17	0x3e350e19	0.17681159
18	0xbd515a33	-0.05111141
19	0x3ca89234	0.020577528
20	0x3db358ed	0.087571956
21	0xbe43bfbd	-0.19116111
22	0x3d9c7a8f	0.07640564
23	0x3e65a9d9	0.22428073
24	0xbcb2deca	-0.02183475
25	0x3e1ae65f	0.15126942
26	0x3e86f7de	0.26360983
27	0x3d9eafb5	0.07748357
28	0x3d68acbf	0.05680537
29	0xbda09a63	-0.07841947
30	0x3e538507	0.20656215
31	0xbe596dd5	-0.21233304
32	0x3b2cf481	0.0026390853
33	0x3e71cba3	0.23612837
34	0x3eaf2558	0.3420818
35	0x3e929c23	0.28634748
36	0xbe9ddd07	-0.30832693
37	0xbe83525f	-0.25648782
38	0x3d071778	0.032981366
39	0xbe9defb0	-0.3084693
40	0x3d0b9c3b	0.03408454
41	0x3d6f0fb2	0.058364578
42	0x3e63943c	0.22224516
43	0xbd4f845c	-0.050663337
44	0x3e898aa9	0.26863602
45	0xbd3d8a00	-0.046274185
46	0xbb8cdf99	-0.004299116
47	0x3e834be9	0.25643852
48	0x3e56f0a8	0.2099024
49	0x3df32cdf	0.11873793
50	0x3eda38ab	0.4262136
51	0x3b40e246	0.0029431744
52	0x3e5489c1	0.20755674
53	0x3ea13c42	0.31491286
54	0x3d127cc0	0.035763502
55	0x3e39cfcc	0.18145674
56	0xbdef5af4	-0.1168727
57	0xbe84343e	-0.25821108
58	0x3d851d20	0.06499696
59	0xbdc51174	-0.096224695
60	0xbe826687	-0.25468847
61	0xbe601790	-0.21883988
62	0x3e23039c	0.15919346
63	0x3dd3f28f	0.10348999
64	0x3ddedbea	0.10881789
65	0x3e54d4e8	0.20784342
66	0xbe178021	-0.14794971
67	0x3de0d241	0.10977603
68	0x3c9d0d19	0.019171285
69	0x3e9cc600	0.30619812
70	0xbe6d8ad1	-0.23197486
71	0x3e99b600	0.30021667
72	0x3e9df4fe	0.30850977
73	0x3e2150bf	0.15753458
74	0xbe6b4af8	-0.22977817
75	0x3dd3c4ed	0.10340295
76	0xbeabeb8f	-0.33578154
77	0x3d6e3be1	0.058162574
78	0xbdb5bb6f	-0.08873641
79	0x3d745bbe	0.059657805
80	0x3d697d8b	0.057004493
81	0xbea9b041	-0.33142284
82	0x3e472643	0.1944819
83	0x3e20f659	0.15718974
84	0x3e41be7e	0.18920323
85	0xbe09fa76	-0.1347445
86	0x3e1750ce	0.14776918
87	0xbdabb6ee	-0.083845004
88	0xbcc6f6ba	-0.02428757
89	0xbc81b096	-0.015831273
90	0xbe55dc8c	-0.20884913
91	0xbe5ded14	-0.2167247
92	0xbe8b4160	-0.27198315
93	0x3e6386d1	0.22219397
94	0x3e7e22ab	0.24817912
95	0xbd540d03	-0.05177022
96	0xbea4bbaa	-0.32174426
97	0xbc869a84	-0.0164311
98	0x3e87a0b4	0.26489794
99	0x3e20b36a	0.15693441
100	0xbccc41fe	-0.024933811
101	0xbcc8a5b3	-0.024493074
102	0xbe82f9aa	-0.25581104
103	0x3e0bf7f9	0.13668813
104	0xbd5713c2	-0.052509077
105	0xbe26d3d3	-0.16291742
106	0x3c5e9341	0.013584913
107	0xbea2b94e	-0.31782
108	0xbe850990	-0.25983858
109	0xbd39273c	-0.045203432
110	0x3e6c137d	0.23054309
111	0xbe8df5ae	-0.277265
112	0xbe898d64	-0.26865685
113	0xbb05c86b	-0.0020413648
114	0x3d91a8d9	0.07112283
115	0xbe9514a0	-0.29117298
116	0x3d4f92d1	0.050677124
117	0xbecc8b7a	-0.39950162
118	0xbda737fd	-0.08164976
119	0xbe2c89fd	-0.16849513
120	0xbda0a675	-0.07844249
121	0xbdc4a538	-0.096018255
122	0x3e2a7bcd	0.16648789
123	0x3d76ef4a	0.060286798
124	0xbcb32246	-0.021866929
125	0x3ea0c27c	0.3139838
126	0x3e7e9a38	0.24863517
127	0xbecbc8af	-0.39801547
128	0xbebe4366	-0.37160796
129	0xbe0d88ac	-0.13821667
130	0xbbb1d1a0	-0.0054266006
131	0x3d34cc1a	0.04413996
132	0x3eaea3ea	0.34109432
133	0x3e1f6280	0.15564919
134	0xbd63c0a4	-0.05560364
135	0xbe26340e	-0.16230795
136	0xbe9721bd	-0.29517928
137	0xbe520539	-0.20509805
138	0x3e4c0e2a	0.19927278
139	0x3da9ee63	0.08297422
140	0x3cc016f7	0.02344845
141	0x3d168683	0.036749374
142	0x3e1a3a0e	0.15061209
143	0x3e305798	0.17220914

incep1.encoder.0.0.bias f4 [16]
0	0x3e9b82cd	0.3037323
1	0x3d8382f2	0.0642146
2	0xbcf589ae	-0.029972877
3	0xbe7168ea	-0.23575178
4	0x3da285e4	0.07935694
5	0xbe4d294a	-0.20035282
6	0x3e06e4b2	0.13173178
7	0x3baa0151	0.005188145
8	0x3d99032e	0.074713096
9	0xbe88c9ab	-0.2671636
10	0xbe300057	-0.1718763
11	0xbc358cf0	-0.011080965
12	0xbd4e46d7	-0.050360527
13	0x3e3710b7	0.1787747
14	0x3e7e33c3	0.24824433
15	0x3e4b05e9	0.19826473

incep1.encoder.0.1.weight f4 [16]
0	0x3f90fab1	1.1326505
1	0x3f86be7e	1.0526884
2	0x3f7a55b7	0.9778704
3	0x3f7b066a	0.9805666
4	0x3f57a373	0.8423378
5	0x3f751c73	0.95746535
6	0x3f7fb64d	0.99887544
7	0x3f8635c0	1.0485153
8	0x3f80d38d	1.006456
9	0x3f77c371	0.96782595
10	0x3f6e4ff9	0.9309078
11	0x3f6f8612	0.9356395
12	0x3f749c80	0.955513
13	0x3f898661	1.0744134
14	0x3f87601b	1.0576204
15	0x3f7cc2be	0.98734653

incep1.encoder.0.1.bias f4 [16]
0	0xbe18a2e9	-0.14905895
1	0x3d78c781	0.060737137
2	0xbe1b434c	-0.1516239
3	0x3c153b4f	0.009108379
4	0xbbc06e9f	-0.005872562
5	0xbe7615ab	-0.24031703
6	0xbdd1ae77	-0.10238355
7	0xbe2d0c21	-0.16899158
8	0xbcd4366a	-0.025904853
9	0xbe2e068c	-0.16994685
10	0xbda59324	-0.080847055
11	0xbe13952c	-0.14412373
12	0x3d1575e0	0.036489367
13	0xbe1504e0	-0.14552641
14	0xbd0a0236	-0.033693515
15	0xbe222a93	-0.15836553

incep1.encoder.0.1.running_mean f4 [16]
0	0x3e9b8eb8	0.30382323
1	0x3d82ddbf	0.06389951
2	0xbcec01f6	-0.028809529
3	0xbe6e7272	-0.23285845
4	0x3da009ea	0.07814391
5	0xbe4911e9	-0.19635738
6	0x3e0513fb	0.12995903
7	0x3bf4820d	0.0074617923
8	0x3d9a271b	0.0752699
9	0xbe88c52b	-0.26712927
10	0xbe31464f	-0.17311977
11	0xbc50336e	-0.012707574
12	0xbd58a48b	-0.052891295
13	0x3e35ca66	0.1775299
14	0x3e7e26a1	0.24819423
15	0x3e4b26fe	0.19839093

incep1.encoder.0.1.running_var f4 [16]
0	0x38bcd079	9.0033696e-05
1	0x37762e3d	1.4673508e-05
2	0x38107268	3.4438825e-05
3	0x390f135d	0.00013644756
4	0x38a89164	8.0379454e-05
5	0x37b9ca02	2.2147786e-05
6	0x38eaf6de	0.00011203972
7	0x38116cc9	3.4672008e-05
8	0x3852d0cf	5.026237e-05
9	0x37cdaa2b	2.4517145e-05
10	0x384034a3	4.582539e-05
11	0x38105944	3.441541e-05
12	0x38f3553a	0.000116030176
13	0x38b7a737	8.757266e-05
14	0x38c9d152	9.623416e-05
15	0x3656430b	3.192751e-06

incep1.encoder.1.0.weight f4 [32, 16, 3]
0	0x3e3e36b2	0.18575552
1	0x3db596c7	0.08866649
2	0x3d87e424	0.06635311
3	0x3e5da4e4	0.21644932
4	0xbc4b9ce0	-0.012427539
5	0x3cc47caa	0.023985226
6	0xb92c4fab	-0.00016432877
7	0x3e18a7ae	0.14907715
8	0xbd3b6897	-0.04575404
9	0x3d46c19f	0.048524495
10	0x3e020602	0.12697604
11	0x3d83062a	0.0639766
12	0xbd0da861	-0.034584407
13	0x3d6e67b1	0.058204357
14	0x3d19e384	0.03757049
15	0xbbc9e9b5	-0.0061618933
16	0x3dd08611	0.10181821
17	0x3e0cc762	0.13747934
18	0xbcc259e0	-0.023724496
19	0x3d87e49b	0.066354
20	0x3d3e6ae6	0.046488665
21	0x3d6734f4	0.056446984
22	0x3dc5faa6	0.09666948
23	0xbd39f4e7	-0.045399573
24	0x3a95b794	0.0011422508
25	0xbc8786c0	-0.016543746
26	0xbd8cd1fe	-0.0687599
27	0xbe3a71cf	-0.18207477
28	0xbdaaaa29	-0.08333237
29	0xbdb55c66	-0.08855514
30	0x3dec3f36	0.11535494
31	0xbdc060df	-0.09393477
32	0xbdc98fc8	-0.09841877
33	0xbe14b5bb	-0.1452245
34	0x3d77ba9e	0.060480706
35	0x3d445f44	0.047942415
36	0xbe3818d4	-0.17978221
37	0x3c5e75ef	0.013577922
38	0x3daf328e	0.085545644
39	0xbdb7c12b	-0.08972391
40	0x3dee2cac	0.11629614
41	0x3e699914	0.22812301
42	0x3d93f9f4	0.07225409
43	0x3dfb8677	0.122815065
44	0x3d64f4a6	0.055897377
45	0x3a018186	0.000494026
46	0x3de63914	0.112413555
47	0x3d7d05a7	0.06177297
48	0xbdc56334	-0.09638062
49	0xbbb8a876	-0.0056353165
50	0x3d99e454	0.07514253
51	0x3d053c60	0.03252828
52	0xbcba3603	-0.022730833
53	0xbd514c80	-0.051098347
54	0xbd8c9ff0	-0.06866443
55	0x3d8891f1	0.06668461
56	0xbe0c9bf2	-0.13731363
57	0xbd52d753	-0.05147488
58	0xbdc22618	-0.09479922
59	0xbe38a49f	-0.18031548
60	0xbcd41cd5	-0.025892654
61	0x3e339a67	0.17539369
62	0x3da9557f	0.0826826
63	0x3cb49998	0.022045895
64	0xbbefda6d	-0.0073197396
65	0xbd859326	-0.06522207
66	0x3e3d8255	0.18506749
67	0x3cd9a8b6	0.026569705
68	0x3da72bd9	0.0816266
69	0xbe3e969f	-0.18612145
70	0x3d7ab56e	0.06120818
71	0xbe2f7faa	-0.17138544
72	0x3c309de1	0.010779829
73	0xbded9593	-0.11600795
74	0xbba38e9e	-0.0049913665
75	0xbdd174d1	-0.10227359
76	0xbcc09ff1	-0.023513766
77	0xbd42eeda	-0.047591068
78	0x3c9dd829	0.019268112
79	0x3d00a3cd	0.031406213
80	0x3d3a502e	0.04548662
81	0x3cf3ac4b	0.029745242
82	0xbddb51ae	-0.107089385
83	0xbd5f7764	-0.05455722
84	0x3dfa75d3	0.122295044
85	0x3cc1262a	0.023577768
86	0x3ced8cc7	0.028997792
87	0xbdef92c9	-0.11697919
88	0xbd065c77	-0.032803025
89	0x3d9f4e07	0.077785544
90	0xbe2f67b0	-0.17129397
91	0x3c94dac4	0.018170722
92	0x3e039eaa	0.12853494
93	0x3b243d2f	0.0025060882
94	0x3d686087	0.05673268
95	0xbd7fc1a7	-0.06244054
96	0xbc843080	-0.016136408
97	0xbe1e1350	-0.15437055
98	0x3dabf21e	0.083957896
99	0xbb443242	-0.0029937183
100	0xbca07b98	-0.019590184
101	0xbda203ba	-0.07910867
102	0xbe292526	-0.16518077
103	0x3e5bb1c6	0.21454534
104	0x3d7aee77	0.061262574
105	0x3db762f8	0.08954424
106	0x3d87d893	0.06633105
107	0xbd8f9b94	-0.07012096
108	0xbd8ac03b	-0.06774946
109	0x3d4cf3f6	0.050037347
110	0x3d9057c7	0.07047992
111	0x3d1e6fd4	0.038680866
112	0x3da382c2	0.079839244
113	0x3ca2b0d2	0.019859705
114	0xbd8c5061	-0.068512686
115	0x3e0be3c7	0.13661109
116	0x3d42f89c	0.047600374
117	0x3e0655bb	0.13118641
118	0xbd68c8cd	-0.056832124
119	0xbe13e19e	-0.14441535
120	0x3e36a4b5	0.17836268
121	0xbdf5c265	-0.119999684
122	0xbc818ede	-0.015815195
123	0xbe3d4650	-0.18483853
124	0x3d8597c4	0.065230876
125	0xbc917118	-0.017754123
126	0xbdd8ee52	-0.10592331
127	0xbd453cae	-0.04815357
128	0xbe471ad3	-0.19443826
129	0x3dbb8b90	0.09157479
130	0x3cbd63c9	0.02311887
131	0x3e2bf568	0.16792834
132	0xbc34ec64	-0.011042688
133	0xbcba8fda	-0.022773672
134	0x3dd1eb5b	0.102499686
135	0xbe0e9cda	-0.13927022
136	0x3d9435ea	0.07236846
137	0xbe33d29c	-0.1756081
138	0x3db0904d	0.08621273
139	0xbd8be684	-0.06831077
140	0x3db42703	0.087965034
141	0xbdc594d9	-0.09647531
142	0x3e3c5e3a	0.1839532
143	0xbdf6c5a2	-0.12049414
144	0x3c946e97	0.01811914
145	0xbde2b6aa	-0.11069997
146	0xbcd1a9e8	-0.025593713
147	0xbd16fcf3	-0.036862325
148	0xbe159535	-0.14607699
149	0xbdc1d3d7	-0.09464233
150	0x3d007367	0.031360056
151	0x3d820dd6	0.06350295
152	0x3bca0f78	0.006166395
153	0x3d4152a0	0.047197938
154	0x3e5405f9	0.20705403
155	0x3dd9eccd	0.10640869
156	0xbab35568	-0.0013682069
157	0xbc701ec2	-0.014655771
158	0x3ded57b9	0.115889974
159	0x3e310ca6	0.17289981
160	0x3bd29d6c	0.0064274576
161	0x3e19d09c	0.15020984
162	0x3cb8b891	0.022548946
163	0xbe1e16a7	-0.15438329
164	0x3d53a58b	0.051671546
165	0x3da6c40c	0.08142862
166	0x3d4c6747	0.04990318
167	0xbd48d655	-0.049032528
168	0x3c9a1120	0.018806994
169	0x3e093568	0.13399279
170	0x3d45f8c1	0.048332933
171	0x3e062833	0.13101272
172	0x3e0e173c	0.1387605
173	0x3e0f5366	0.13996658
174	0xbc1da469	-0.009621718
175	0xbdbf48e2	-0.09340073
176	0xbcd3cd42	-0.02585471
177	0x3c7aeff7	0.015316001
178	0x3db2a1ed	0.08722291
179	0x3d5ae2d6	0.053438984
180	0xbde32de6	-0.11092739
181	0xbe8de78b	-0.27715716
182	0xbd554f9d	-0.05207788
183	0xbe3fc51f	-0.1872754
184	0xbda00571	-0.07813538
185	0x3e02e630	0.12783122
186	0x3d83c605	0.064342536
187	0x3d07afec	0.033126757
188	0xbc74bdd8	-0.01493784
189	0xbdd524aa	-0.10407384
190	0xbe486e4a	-0.19573322
191	0xbe05a10b	-0.13049714
192	0xbe2d035f	-0.16895817
193	0xbe152b08	-0.14567196
194	0x3e50cc20	0.20390368
195	0x3d1916d7	0.037375297
196	0x3dca290c	0.0987111
197	0xbe128630	-0.14309001
198	0xbd0d822d	-0.034547973
199	0xbdbd8539	-0.09253926
200	0xbcd0acd8	-0.025473043
201	0xbe140f4a	-0.14458957
202	0xbd750064	-0.059814826
203	0x3e34ee38	0.17668998
204	0x3e5dc1cc	0.21655959
205	0xbd97d6eb	-0.07414039
206	0x3de580fc	0.112062424
207	0x3e4d4d0e	0.20048925
208	0x3e56bd67	0.20970689
209	0x3e199fd2	0.15002373
210	0x3e15f682	0.14644817
211	0xbd29a0a0	-0.04141295
212	0x3dc03b94	0.093863636
213	0x3d064834	0.032783702
214	0xbd9f9c33	-0.077934645
215	0x3e4871d0	0.19574666
216	0xbcf79c7a	-0.030225981
217	0x3e283a48	0.16428483
218	0xbc7e69ee	-0.015528185
219	0x3afcb149	0.0019278909
220	0x3e0c96cf	0.13729404
221	0xbbbec3c5	-0.0058216774
222	0xbe175e42	-0.1478205
223	0xbda843a5	-0.08216027
224	0x3d5fd578	0.05464694
225	0xbd823b96	-0.06359021
226	0x3806326a	3.199504e-05
227	0x3d80a406	0.06281285
228	0x3da36453	0.0797812
229	0x3d89fd32	0.06737746
230	0xbbc94b5f	-0.006143018
231	0x3e491732	0.19637755
232	0xbd8cd9c8	-0.06877476
233	0x3d4b1ce6	0.049588107
234	0xbd7eb35f	-0.06218278
235	0x3ce5a87f	0.028034447
236	0xbbf15c08	-0.0073657073
237	0x3e98b91e	0.29828733
238	0xbe0b8ec0	-0.13628674
239	0xbc60b618	-0.0137152895
240	0xbe14053e	-0.14455125
241	0xbd72d8d4	-0.059288815
242	0x3c5f1b8a	0.013617406
243	0x3e14780e	0.14498922
244	0xbbb514ec	-0.0055261757
245	0xbc3e9bf5	-0.011633863
246	0x3a4b2e7c	0.0007750762
247	0xbd2b5be4	-0.04183568
248	0xbb6b00e9	-0.0035858697
249	0xbd198916	-0.03748425
250	0xbe091c22	-0.13389638
251	0x3e2b928e	0.16755125
252	0x3d9447c5	0.072402515
253	0x3d2d16cf	0.04225808
254	0x3b341ddd	0.002748362
255	0xbb4b7639	-0.0031045808

incep1.encoder.1.0.bias f4 [32]
0	0xba8d6a31	-0.0010789094
1	0xbd91319f	-0.070895426
2	0xbd24bb76	-0.04021784
3	0x3df6e457	0.12055271
4	0x3d608afb	0.054820042
5	0x3e12d1f7	0.14337908
6	0xbe02104e	-0.12701532
7	0x3ca410e1	0.02002758
8	0x3dc5e040	0.09661913
9	0xbdc61a3f	-0.09672975
10	0xbd903a77	-0.07042401
11	0x3d517cb4	0.051144317
12	0x3da2bd3c	0.0794625
13	0xbdf7c8bb	-0.12098833
14	0x3ceacec3	0.028663045
15	0x3e07ec4b	0.13273732
16	0xbd4a3726	-0.049369
17	0xbdedbb6f	-0.11608016
18	0x3d6e8350	0.058230698
19	0xbd28c619	-0.041204546
20	0x3dfc7aa4	0.12328079
21	0xbdb93f5a	-0.090452865
22	0xbd0d36dc	-0.034476146
23	0x3e0aaaaa	0.13541666
24	0xbd1d4b3d	-0.03840183
25	0xbdc82acd	-0.097737886
26	0xbd2cd0f6	-0.04219147
27	0x3da2dd28	0.079523385
28	0xbcd4a197	-0.025955958
29	0xbd676dcd	-0.0565012
30	0xbdd20bf4	-0.10256186
31	0x3d883366	0.066504285

incep1.encoder.1.1.weight f4 [32]
0	0x3f83f458	1.0308943
1	0x3f6d584f	0.92712873
2	0x3f75ee7e	0.96067035
3	0x3f88a83a	1.0676339
4	0x3f69a98a	0.9127432
5	0x3f705ed3	0.9389469
6	0x3f66f83f	0.90222543
7	0x3f79985b	0.974981
8	0x3f8cbcb9	1.0995094
9	0x3f780913	0.96888846
10	0x3f37a3fc	0.71734595
11	0x3f84309e	1.0327337
12	0x3f814b91	1.0101186
13	0x3f8238cd	1.0173584
14	0x3f78b3ea	0.9714953
15	0x3f7222a4	0.9458411
16	0x3f88dbdf	1.0692099
17	0x3f6f076c	0.933707
18	0x3f715f48	0.9428601
19	0x3f83d83a	1.0300362
20	0x3f8778ca	1.0583737
21	0x3f8a6160	1.0810966
22	0x3f884d1f	1.0648535
23	0x3f6f480b	0.93469304
24	0x3f64c963	0.8936979
25	0x3f8038bc	1.0017314
26	0x3f6a1b04	0.9144747
27	0x3f6eafa4	0.93236756
28	0x3f907b5b	1.1287645
29	0x3f83ed67	1.0306824
30	0x3f7143cd	0.9424408
31	0x3f712dfb	0.94210786

incep1.encoder.1.1.bias f4 [32]
0	0x3acecf0f	0.0015778261
1	0xbe15316e	-0.14569637
2	0xbe608b3e	-0.21928117
3	0xbaac24a5	-0.001313348
4	0xbde8a369	-0.11359293
5	0xbd9fdc63	-0.07805707
6	0xbca413bf	-0.020028947
7	0xbe150064	-0.1455093
8	0xbcc2aaaf	-0.023763029
9	0xbe5dcc8c	-0.2166006
10	0xbe050502	-0.12990192
11	0xbdb601d6	-0.08887069
12	0xbc000a0a	-0.0078148935
13	0xbe309660	-0.17244864
14	0x3c71e7e1	0.014764757
15	0xbe263588	-0.16231358
16	0xbce1cdf7	-0.027564032
17	0xbde19224	-0.11014202
18	0xbdab0fc4	-0.083526164
19	0xbc8c4aa4	-0.017125435
20	0xbc15c444	-0.009141032
21	0xbc54a797	-0.01297941
22	0xbdb58c6a	-0.088646725
23	0xbd7861bf	-0.060640093
24	0xbdf4a6c3	-0.1194587
25	0xbd6eb4f2	-0.05827803
26	0xbdbd14fa	-0.092325166
27	0x3d975e99	0.0739109
28	0xbe7057b1	-0.23470952
29	0xbcb012ed	-0.0214934
30	0xbe9cdf4f	-0.3063912
31	0xbda57642	-0.080791965

incep1.encoder.1.1.running_mean f4 [32]
0	0x3cdeed45	0.027212748
1	0xbd77bd76	-0.06048342
2	0xbc3b9661	-0.011449427
3	0x3db3b7bb	0.08775278
4	0x3d8441b3	0.06457844
5	0x3e22386f	0.1584184
6	0xbe3f4be5	-0.18681295
7	0xbb9f055f	-0.004852935
8	0x3d73baf8	0.05950448
9	0xbd237ba7	-0.039912846
10	0xbde2252d	-0.11042247
11	0x3c395c9d	0.011313585
12	0x3e1fb495	0.1559623
13	0xbdcd8287	-0.10034662
14	0x3d44e16b	0.048066538
15	0x3e1c5ab6	0.15268978
16	0xbd2262e5	-0.039645094
17	0xbdf3ae35	-0.11898462
18	0x3d5a5d2f	0.053311523
19	0x3cddb35a	0.02706306
20	0x3dcb64a1	0.09931303
21	0xbdcd0f92	-0.100127354
22	0xbc4f492e	-0.012651725
23	0x3db48cd7	0.088159256
24	0xbceae385	-0.028672943
25	0xbd980022	-0.074219
26	0xbd33979b	-0.043845754
27	0x3dd55f99	0.104186244
28	0x3c32abaa	0.010905186
29	0xbdc729c5	-0.09724764
30	0xbd955c07	-0.072929434
31	0x3db99c86	0.090630576

incep1.encoder.1.1.running_var f4 [32]
0	0x3ed83ea5	0.42235294
1	0x3e5f8a31	0.2183006
2	0x3e8cf15c	0.27527893
3	0x3df39198	0.11893004
4	0x3d843af5	0.06456558
5	0x3e7e0d53	0.2480977
6	0x3f061a02	0.52383435
7	0x3e577932	0.21042326
8	0x3e229204	0.15876013
9	0x3eec119d	0.46107188
10	0x3e42890b	0.1899759
11	0x3e03abe3	0.12858538
12	0x3e012e98	0.1261543
13	0x3db76778	0.08955282
14	0x3dee54f8	0.116373
15	0x3ebc84c9	0.36820057
16	0x3e8f9ecd	0.28050843
17	0x3e8e2b01	0.27767184
18	0x3de28ab7	0.11061614
19	0x3eb4bf99	0.35302427
20	0x3ebc9e26	0.36839408
21	0x3e09c048	0.13452256
22	0x3eb05ad5	0.344443
23	0x3f075890	0.5286951
24	0x3e98e381	0.29861072
25	0x3e2c3e43	0.16820626
26	0x3e9f8956	0.31159467
27	0x3d9783c6	0.07398181
28	0x3f10491c	0.56361556
29	0x3ef03f85	0.46923462
30	0x3e4fc467	0.20289765
31	0x3e0ff60c	0.14058703

incep1.encoder.2.0.weight f4 [64, 32, 3]
0	0x3db8f7ce	0.0903164
1	0xbddb0175	-0.10693637
2	0xbaa69f9f	-0.0012712366
3	0xbd00f3f4	-0.03148265
4	0xbd927a99	-0.0715229
5	0xbdf5e181	-0.12005902
6	0x3dd34d1c	0.10317442
7	0x3d7c9180	0.061662197
8	0x3cfca936	0.030842405
9	0x3e22de70	0.15905166
10	0x3cbdd313	0.023171937
11	0x3deb0dcc	0.11477241
12	0xbdf72879	-0.120682664
13	0xbe430f7c	-0.19048876
14	0xbdb9635b	-0.09052154
15	0x3ca1a558	0.019732162
16	0xbd1e0e84	-0.038588062
17	0x3e18ae27	0.14910184
18	0x3d9acc6f	0.07558524
19	0x3cc01ff9	0.023452746
20	0xbbb112a7	-0.005403835
21	0xbd7fb9af	-0.06243294
22	0xbddb683e	-0.10713242
23	0xbe3cd2c1	-0.18439771
24	0xbcfbe315	-0.03074793
25	0x3e18b2dd	0.14911981
26	0x3d899053	0.06716981
27	0x3da25dba	0.07928033
28	0x3c0df785	0.00866497
29	0xbdadb1a6	-0.084811494
30	0xbc368bf1	-0.011141763
31	0xbdd4a1f9	-0.10382456
32	0x3db59833	0.0886692
33	0xbc7fd6d6	-0.015615186
34	0x3dcdcbf1	0.10048664
35	0xbbb3d182	-0.0054876218
36	0x3da58966	0.08082847
37	0xbd7cf86e	-0.06176036
38	0x3d8d7fda	0.069091514
39	0xbd314a71	-0.043283883
40	0x3d564adc	0.052317485
41	0xbb237d9b	-0.0024946693
42	0xbc9651ad	-0.018349493
43	0x3dc4a373	0.09601488
44	0x3d8d9299	0.06912727
45	0xbcc26edb	-0.0237345
46	0xbd968833	-0.07350197
47	0x3d0a82fe	0.03381633
48	0x3dbbadb8	0.091639936
49	0x3d465dcf	0.048429307
50	0x3d5337f4	0.051567033
51	0xbdc90aca	-0.09816511
52	0x3b03086d	0.0019994036
53	0xbd82ae66	-0.0638092
54	0x3dd9acda	0.10628672
55	0x3c83594c	0.016033791
56	0x3d1978ce	0.037468724
57	0x3e4305f5	0.19045241
58	0xbde3b2db	-0.11118098
59	0xbe0b1c07	-0.1358491
60	0x3e00e7ff	0.125885
61	0x3d962801	0.07331849
62	0x3d7ae2fa	0.061251618
63	0x3e30cc71	0.17265488
64	0x3cfe575e	0.03104752
65	0xbccf4748	-0.025302544
66	0xbd487883	-0.048943054
67	0xbcb9cf55	-0.022681871
68	0xbc863954	-0.016384758
69	0xbbad5428	-0.005289573
70	0xbe1a67c9	-0.15078653
71	0xbd961251	-0.07327712
72	0x3ce5659b	0.02800255
73	0x3d915ba6	0.07097559
74	0x3d99ff14	0.075193554
75	0xbd8ffef8	-0.07031053
76	0xbda6446b	-0.081185184
77	0x3d1412e8	0.036150843
78	0x3d3b6f97	0.045760717
79	0x3e092330	0.13392329
80	0x3baa2498	0.0051923506
81	0x3d19f7c1	0.037589792
82	0x3cf3bf51	0.029754313
83	0xbe025119	-0.12726249
84	0x3e1ae2be	0.15125558
85	0x3e1ddbc7	0.1541587
86	0x3de1dff3	0.11029043
87	0xbb8df882	-0.004332603
88	0x3bd13db9	0.0063855317
89	0xbdc9293b	-0.09822317
90	0xbdd7378c	-0.105086416
91	0x3d2de853	0.04245789
92	0x3e02e184	0.1278134
93	0xbe1f7ea2	-0.1557565
94	0xbd58ec2a	-0.0529596
95	0xbe34b24e	-0.17646143
96	0x3e07b143	0.13251214
97	0x3cb004ca	0.021486659
98	0xbd221bb1	-0.03957719
99	0xbc15e388	-0.009148486
100	0xbc8cc9c2	-0.01718605
101	0x3bb602d7	0.0055545378
102	0x3d58b34c	0.052905366
103	0x3c966c11	0.018362077
104	0x3d7aecac	0.061260864
105	0xbcc9eaa7	-0.024648024
106	0x3daca130	0.084291816
107	0xbd2c48ef	-0.042061742
108	0xbda793d1	-0.081824906
109	0x3df47c03	0.11937716
110	0x3d251e38	0.040312022
111	0xbc86cfd2	-0.016456518
112	0xbdabee38	-0.08395046
113	0xbd70caf6	-0.05878731
114	0xbdcf7d7b	-0.101313554
115	0xbd7d9984	-0.061913982
116	0xbdba9498	-0.09110373
117	0x3baa25cf	0.0051924954
118	0x3e2d385a	0.16916028
119	0x3d6cee5c	0.057844505
120	0xbccfcde3	-0.02536673
121	0x3e15288c	0.14566249
122	0xbdb1e105	-0.08685497
123	0x3d60503c	0.054764017
124	0xbc5e6944	-0.013574902
125	0x3d7ce2fe	0.061739914
126	0x3dbddc5f	0.09270548
127	0xbcdbcd1e	-0.026831206
128	0xbb73b08d	-0.003718409
129	0x3df69102	0.12039377
130	0x3e281cd0	0.16417241
131	0xbdf9fdf6	-0.12206642
132	0xbdb402d7	-0.08789604
133	0x3ca43181	0.020043137
134	0x3dae8e1b	0.08523198
135	0xbdbea56b	-0.09308895
136	0x3dd8aca1	0.10579801
137	0xbcf3560c	-0.029704116
138	0x3d9c139c	0.07620928
139	0xbd460c5d	-0.048351634
140	0x3d141901	0.036156658
141	0x3d981e98	0.0742771
142	0x3cd25c36	0.025678735
143	0xbb922047	-0.004459414
144	0xbacf6d1e	-0.0015825366
145	0xbd55cc2f	-0.052196678
146	0xbd745cfe	-0.059658997
147	0x3ce5b20e	0.028039005
148	0xbe1cb7d7	-0.15304504
149	0xbe0932be	-0.13398263
150	0x3d325454	0.043537453
151	0xbd376789	-0.044776473
152	0x3d801df1	0.06255711
153	0x3d4c98d5	0.04995044
154	0x3dcd94bc	0.100381345
155	0x3e01814e	0.12646982
156	0x3c5de32c	0.0135429315
157	0x3dd61a02	0.10454179
158	0xbcc3664a	-0.023852486
159	0x3e583631	0.21114422
160	0x3cf5acf0	0.02998969
161	0x3e116171	0.14197327
162	0x3decf8a8	0.11570865
163	0xbd7a04a8	-0.061039597
164	0x3dbbfcc2	0.09179069
165	0xbd8842da	-0.06653376
166	0xbd5212c5	-0.05128743
167	0xbba03c0f	-0.004889972
168	0xbcdc5746	-0.026897084
169	0xbce99a77	-0.028516037
170	0xbcdea9e1	-0.027180614
171	0xbaa54f1d	-0.0012612079
172	0xbdd09208	-0.10184103
173	0xbde8df88	-0.1137076
174	0xbd854b61	-0.06508518
175	0x3dbf9567	0.09354668
176	0x3df6b8fb	0.12047001
177	0xbd56e530	-0.052464664
178	0x3d4fa0bc	0.050690398
179	0xbcc048c6	-0.023472201
180	0xbd3afb24	-0.045649663
181	0x3d769209	0.060197864
182	0xbe03c202	-0.12866977
183	0x3de4b889	0.1116801
184	0x3cb28b29	0.021794872
185	0xbd80edf6	-0.062953874
186	0x3d8b1ffd	0.06793211
187	0x3d0a9646	0.03383472
188	0xbd25f707	-0.040518787
189	0xbdbb7532	-0.091532126
190	0xbe03d7b0	-0.12875247
191	0x3d9d09b6	0.07667868
192	0x3e1bb2be	0.15204903
193	0xbdcaddd5	-0.09905592
194	0x3e156ebc	0.14593023
195	0x3d2dd1a1	0.042436246
196	0x3c1c0a3d	0.009523925
197	0xbb7a08ed	-0.0038152293
198	0x3dfa2306	0.122137114
199	0xbc880445	-0.016603598
200	0x3d105cb3	0.035244655
201	0x3e0a3612	0.13497189
202	0x3cfc69ab	0.030812105
203	0x3d35c24a	0.04437474
204	0x3b818fbe	0.003953903
205	0xbcc6a15e	-0.024246868
206	0xbd7b7fe0	-0.061401248
207	0x3c8591fb	0.01630496
208	0xbd8280a9	-0.06372196
209	0x3c007ffb	0.007843013
210	0xbdf52ffe	-0.119720444
211	0xbd60eae4	-0.05491151
212	0x3d1f6511	0.038914744
213	0x3c405849	0.011739799
214	0xbd18cda1	-0.037305478
215	0xbdb16517	-0.086618595
216	0x3dde944d	0.1086813
217	0xbcf9b216	-0.030480426
218	0xbd0a5792	-0.03377492
219	0x3defbdd1	0.117061265
220	0x3c779f49	0.01511366
221	0x3ca9eb1e	0.020741995
222	0xbda45a9b	-0.08025094
223	0xbd17438b	-0.03692965
224	0x3be0a830	0.006855987
225	0x3e01160a	0.12606063
226	0xbc70e802	-0.0147037525
227	0x3d2cc7a1	0.04218257
228	0xbd046fba	-0.032333113
229	0xbd30baea	-0.043147005
230	0x3bbad656	0.0057018204
231	0x3de6eace	0.11275254
232	0x3e02de83	0.12780194
233	0xbd983be4	-0.07433298
234	0xbd274182	-0.040833957
235	0x3d389dcc	0.04507236
236	0x3d301922	0.04299272
237	0x39a82305	0.0003206955
238	0xbd3cf032	-0.046127506
239	0xbd8ec47d	-0.06971071
240	0x3c8c1507	0.01709987
241	0x3e1660cd	0.14685364
242	0x3d2fe91c	0.04294692
243	0x3d18dbb2	0.037318893
244	0x3d910180	0.07080364
245	0x3e2404e9	0.16017498
246	0xbce994af	-0.02851328
247	0xbd0f4513	-0.034977984
248	0x3c67bb9b	0.01414385
249	0xbde42e35	-0.11141626
250	0xbe17d060	-0.14825583
251	0xbd388d79	-0.045056794
252	0x3d4b8472	0.049686857
253	0x3e005fca	0.1253654
254	0x3c32246e	0.010872943
255	0xbd7dee6c	-0.061994955

incep1.encoder.2.0.bias f4 [64]
0	0x3dbeadcc	0.09310493
1	0xbdc6df3e	-0.09710549
2	0x3d67ae95	0.05656298
3	0xbd3724ad	-0.04471271
4	0xbd6f3e84	-0.05840923
5	0x3d170dde	0.03687846
6	0xbd9e1048	-0.07717949
7	0x3db5f107	0.08883863
8	0xbdc154b9	-0.09439988
9	0xbd916f10	-0.071012616
10	0x3cabd609	0.020976083
11	0x3bf9b021	0.007619873
12	0x3d595884	0.05306293
13	0x3dbd5427	0.092445664
14	0x3d50ea7f	0.051004883
15	0xbd924a8e	-0.071431264
16	0x3d0b1eb8	0.033964843
17	0x3da3716a	0.079806164
18	0xbd607ce3	-0.0548066
19	0xbd393133	-0.045212936
20	0x3d248dbb	0.040174227
21	0x3daa76b0	0.08323419
22	0xbda98349	-0.08276994
23	0xbc3d4082	-0.011551024
24	0x3d1a5634	0.037679866
25	0x3dc821cf	0.097720735
26	0xbd37c140	-0.044862032
27	0x3d179316	0.037005506
28	0xb90e8a02	-0.00013593587
29	0x3c665897	0.014059207
30	0xbc667aa2	-0.014067324
31	0xbb95dfe3	-0.0045738085
32	0xbbd7d9f7	-0.0065872627
33	0x3d790b73	0.060801934
34	0xbd01651c	-0.031590566
35	0xbd164362	-0.036685355
36	0x3d66db67	0.056361582
37	0xbd524645	-0.051336545
38	0xbd3030d5	-0.04301532
39	0xbcd07c2b	-0.025449833
40	0x3c15ddd0	0.0091471225
41	0x3d8e64b7	0.069528036
42	0x3c82bef0	0.015960187
43	0xbd8ea876	-0.06965725
44	0xbd420fd2	-0.04737837
45	0x3d74fd00	0.059811592
46	0xbdc0e445	-0.09418539
47	0x3cb470af	0.022026388
48	0xbd386d2d	-0.045025993
49	0xbd3781cd	-0.044801522
50	0x3ce3cbe0	0.027807176
51	0xbd9b7ef2	-0.07592572
52	0xbbbb93e5	-0.0057244175
53	0x3d8e6096	0.06952016
54	0xbd0cd9e7	-0.034387495
55	0x3b3a4d44	0.0028427402
56	0x3c1b11b7	0.009464673
57	0xbccd8611	-0.025088342
58	0xbba3487c	-0.004983006
59	0xbdb6519b	-0.08902284
60	0x3dc418d3	0.09575047
61	0x3d3cdf9e	0.046111695
62	0x3db2e979	0.087359376
63	0xbd4b6e24	-0.049665585

incep1.encoder.2.1.weight f4 [64]
0	0x3f8884f5	1.0665575
1	0x3f6e5c84	0.9310992
2	0x3f84a988	1.0364237
3	0x3f6e12be	0.9299735
4	0x3f8b0a77	1.0862569
5	0x3f7caaf4	0.98698354
6	0x3f855a51	1.0418187
7	0x3f75486b	0.95813626
8	0x3f5aaf67	0.8542389
9	0x3f844f18	1.0336637
10	0x3f8854b8	1.0650854
11	0x3f889375	1.067
12	0x3f85ed64	1.0463071
13	0x3f610a8c	0.8790672
14	0x3f6f6e4d	0.9352768
15	0x3f7b73f2	0.98223794
16	0x3f69c2e6	0.91313016
17	0x3f870023	1.0546917
18	0x3f839c18	1.0282011
19	0x3f4bf79b	0.7967469
20	0x3f895fc8	1.0732355
21	0x3f74cc3f	0.95624155
22	0x3f6a5d31	0.9154845
23	0x3f92f662	1.148144
24	0x3f8882ae	1.066488
25	0x3f6a4098	0.9150481
26	0x3f86d0e3	1.0532497
27	0x3f6019e8	0.8753953
28	0x3f6f4c5a	0.9347588
29	0x3f80b6ef	1.0055827
30	0x3f6aff5b	0.9179589
31	0x3f8c61fc	1.0967402
32	0x3f700ba9	0.9376779
33	0x3f51327d	0.81717664
34	0x3f777053	0.9665577
35	0x3f61a64a	0.8814436
36	0x3f828ce5	1.0199248
37	0x3f7cb1ff	0.987091
38	0x3f6cd5d6	0.9251379
39	0x3f8ab606	1.0836799
40	0x3f787f07	0.9706883
41	0x3f8a757a	1.0817101
42	0x3f8c2f45	1.0951926
43	0x3f8223d6	1.0167186
44	0x3f8e0040	1.1093826
45	0x3f80fbcb	1.0076841
46	0x3f77365d	0.96567327
47	0x3f8160a6	1.010762
48	0x3f8864b6	1.0655735
49	0x3f72abec	0.9479358
50	0x3f90a0f1	1.1299115
51	0x3f6bdc32	0.92132866
52	0x3f746af7	0.95475715
53	0x3f6d7715	0.9275983
54	0x3f79bf80	0.9755783
55	0x3f6ea143	0.93214816
56	0x3f85391f	1.0408057
57	0x3f69168f	0.91050047
58	0x3f902f3b	1.1264414
59	0x3f63a021	0.8891621
60	0x3f850e26	1.0394943
61	0x3f6b4408	0.9190068
62	0x3f691b48	0.9105725
63	0x3f7446ee	0.9542073

incep1.encoder.2.1.bias f4 [64]
0	0xbcddcf24	-0.027076311
1	0xbd38a170	-0.045075834
2	0xbc6363cd	-0.013878775
3	0xbd72f8db	-0.05931936
4	0xbd026fa2	-0.031844743
5	0xbde92f55	-0.11385981
6	0x3ca36239	0.019944297
7	0x3ce6dc8f	0.028181342
8	0x3b7653c9	0.003758656
9	0xbc3d40c2	-0.011551084
10	0x3cb732fa	0.022363175
11	0x3d45928d	0.048235465
12	0xbe044c68	-0.12919772
13	0xbdf96b61	-0.12178684
14	0xbdf6f6cf	-0.12058794
15	0x3dbbf4cc	0.09177551
16	0xbe20d3a9	-0.15705742
17	0x3930dbec	0.00016866595
18	0x3c2f6670	0.010705575
19	0xbe1c0625	-0.15236719
20	0x3c7081bb	0.014679368
21	0xbdce6f84	-0.10079864
22	0xbe076bd9	-0.13224734
23	0xbd6a310a	-0.057175674
24	0xbdc698a2	-0.09697081
25	0xbcd8c074	-0.026458956
26	0x3ccd56eb	0.02506586
27	0x3c8b0081	0.016968014
28	0xbd869c5a	-0.065727904
29	0xbd935c62	-0.07195355
30	0xbd640b5d	-0.0556749
31	0xbe033697	-0.12813793
32	0xbd81f4b4	-0.063455015
33	0xbe405701	-0.1878319
34	0xbd881f04	-0.06646541
35	0xbd1b3065	-0.03788795
36	0xbdb0d838	-0.086349905
37	0x3cafab7e	0.021444079
38	0xbd8e0c00	-0.069358826
39	0xbd5802a3	-0.05273689
40	0xbd20b6f5	-0.03923698
41	0x3ca9ca44	0.02072633
42	0xbc3d6f9f	-0.011562257
43	0x3d88d546	0.06681304
44	0xbd9224f0	-0.071359515
45	0xbe6ef00e	-0.23333761
46	0xbdcb5224	-0.099277765
47	0xbb412a0b	-0.0029474522
48	0x3df393f1	0.11893452
49	0xbd9e3550	-0.07725012
50	0x3d400fa6	0.046889924
51	0xbde32074	-0.11090174
52	0x3c9b50af	0.018959371
53	0xbe243bcd	-0.16038437
54	0xbda392ff	-0.07987022
55	0xbdc5d181	-0.096591
56	0xbd480e50	-0.048841774
57	0xbc3adc90	-0.011405125
58	0xbac9e5ce	-0.001540357
59	0xbe585a5e	-0.21128222
60	0xbe8db198	-0.27674556
61	0xbe78a3a5	-0.24281175
62	0xbd65f33a	-0.056140162
63	0x3cd8922f	0.026436893

incep1.encoder.2.1.running_mean f4 [64]
0	0x3e0db4e4	0.13838536
1	0xbdb414f6	-0.087930605
2	0x3e013b48	0.1262027
3	0xbdf76db6	-0.120814726
4	0xbd812f75	-0.0630788
5	0x3d34c0ae	0.044129066
6	0xbe46e6b3	-0.19423942
7	0xbd48d225	-0.049028534
8	0xbe231400	-0.15925598
9	0x3db003f7	0.08594506
10	0x3c86d0bd	0.016456956
11	0xbbca615a	-0.006176156
12	0x3e402a77	0.18766199
13	0x3d820d70	0.06350219
14	0xbb3739b3	-0.0027957975
15	0xbe1a4463	-0.1506515
16	0x3dbde741	0.09272624
17	0x3e436757	0.1908239
18	0x3d3b47fa	0.04572294
19	0xbce14d33	-0.027502632
20	0x3dcdd162	0.10049702
21	0xbd0841d7	-0.033265915
22	0xbdc128d9	-0.09431619
23	0x3d2824c8	0.041050702
24	0x3da5a1fb	0.08087536
25	0x3d924468	0.07141954
26	0xbe4a168b	-0.19735162
27	0x3dbd7b5d	0.09252045
28	0x3e32cb7b	0.17460434
29	0x3e0361e0	0.12830305
30	0xbdbf36e4	-0.093366414
31	0x3d70dbe6	0.05880346
32	0x3d849a2c	0.064747185
33	0x3dbf6ed8	0.09347314
34	0xbe13854c	-0.14406317
35	0xbe0cd35f	-0.13752507
36	0x3e0343d1	0.12818839
37	0xbe15b0a7	-0.14618169
38	0x3d502932	0.050820537
39	0xbcbe1fcb	-0.02320852
40	0x3d8b78b8	0.06810135
41	0x3e111edd	0.1417193
42	0x3d66d71b	0.056357484
43	0xbe2f9d05	-0.17149742
44	0xbd1d5d16	-0.03841885
45	0xba9f2c57	-0.0012143952
46	0xbe04e6db	-0.1297869
47	0xbda87574	-0.082255274
48	0xbdde2b53	-0.10848107
49	0xbde85046	-0.11343436
50	0x3da153c0	0.07877302
51	0xbbba61b0	-0.005687915
52	0xbd97a7c5	-0.074050464
53	0xbc7bd68b	-0.015370975
54	0xbd06c83f	-0.032905813
55	0xbd5eb275	-0.05436941
56	0x3e11abf8	0.14225757
57	0xbde3d930	-0.111254096
58	0xbd02e34d	-0.031955052
59	0xbd9aaa29	-0.07551987
60	0x3e4d01db	0.20020239
61	0xbd7491d6	-0.059709392
62	0x3bfe8367	0.007767129
63	0xbb8e9e5b	-0.0043523735

incep1.encoder.2.1.running_var f4 [64]
0	0x3f8c508d	1.0962082
1	0x3edaf3cc	0.42764127
2	0x3f6ea50f	0.9322061
3	0x3ebe1f3b	0.37133202
4	0x3fdd872c	1.7306876
5	0x3ef21380	0.47280502
6	0x3f88219e	1.0635259
7	0x3f2ba182	0.67043316
8	0x3e747034	0.23870927
9	0x3ee09760	0.4386549
10	0x3ea4cb6f	0.32186458
11	0x3f7ca567	0.98689884
12	0x3f6c1fb1	0.9223586
13	0x3ec205cf	0.37895057
14	0x3f10cd5f	0.5656337
15	0x3f4c1b33	0.79729
16	0x3e9deabd	0.30843154
17	0x3f70a618	0.9400344
18	0x3f4aa585	0.7915881
19	0x3e370e63	0.17876582
20	0x3fe8ff48	1.8202906
21	0x3ef65b35	0.4811646
22	0x3f40f2ab	0.7537028
23	0x400bbfb7	2.1835763
24	0x3f510916	0.8165449
25	0x3f3dad1f	0.74092287
26	0x3f2772e1	0.65409666
27	0x3f76c997	0.9640135
28	0x3ee688c9	0.45026234
29	0x3e3f31d7	0.18671356
30	0x3e870283	0.26369104
31	0x3f8547a0	1.0412483
32	0x3f3b85ee	0.73251235
33	0x3f3f2257	0.74661773
34	0x3f27eb3b	0.6559331
35	0x3f094964	0.5362761
36	0x3f40fdb8	0.75387144
37	0x3ef6946c	0.48160112
38	0x3eedc8ea	0.46442348
39	0x3fa0b2c2	1.2554553
40	0x3eb5062a	0.35356265
41	0x3f80f2bf	1.007408
42	0x3fb6454b	1.4239897
43	0x3f119bba	0.56878245
44	0x3fdbfbd8	1.7186232
45	0x3f901c6e	1.1258676
46	0x3f9af559	1.2106124
47	0x3f3d0481	0.73835
48	0x3e9c7e21	0.3056498
49	0x3edab8ac	0.42719018
50	0x3fbccc4a	1.4749844
51	0x3f690dfb	0.9103696
52	0x3f038a00	0.51382446
53	0x3fb5b071	1.4194471
54	0x3fdd043a	1.7266915
55	0x3fa8e94f	1.31962
56	0x3ea4ce85	0.32188812
57	0x3eb2459f	0.34818742
58	0x3f9203d7	1.1407422
59	0x3f1dd231	0.6164885
60	0x3efd846c	0.49515092
61	0x3f894ea9	1.072713
62	0x3f31bb59	0.69426495
63	0x3f0d5265	0.5520385

incep1.decoder.0.0.weight f4 [64, 32, 3]
0	0x3e0c01b0	0.13672519
1	0x3d644d01	0.0557375
2	0x3da23d7c	0.079218835
3	0xbe0c5742	-0.13705161
4	0x3dfb52ed	0.12271676
5	0xbd1e36dc	-0.038626537
6	0xbc86ce35	-0.016455749
7	0x3e2c1c02	0.16807559
8	0xbdf31ea1	-0.118710764
9	0xbd915f0f	-0.07098209
10	0x39c9c153	0.00038481745
11	0xbc5d9096	-0.0135232415
12	0x3cd90b05	0.026494512
13	0x3da1910c	0.078889936
14	0xbd6765aa	-0.05649344
15	0x3e24ecad	0.1610591
16	0xbdb1239f	-0.08649372
17	0x3d553604	0.052053466
18	0x3d6bfff2	0.057617135
19	0x3d3ea528	0.046544224
20	0x3cd1e774	0.02562306
21	0xbd21de05	-0.039518375
22	0xbdb99334	-0.0906128
23	0xbe22a405	-0.15882881
24	0x3caacfc1	0.020851018
25	0xbde4a8e0	-0.11165023
26	0xbdf31bc9	-0.11870534
27	0xbd0e1f0e	-0.034697585
28	0x3ca21509	0.019785421
29	0x3e127384	0.14301878
30	0xbd953620	-0.07285714
31	0x3d3ad5ca	0.04561404
32	0x3d3702fb	0.044680577
33	0x3df858b3	0.12126293
34	0xbdc33813	-0.0953218
35	0x3cb3e281	0.021958591
36	0x3cf12e67	0.029441072
37	0x3d2fc933	0.042916488
38	0x3ca4ef12	0.020133529
39	0xbd557bdc	-0.052120075
40	0xbd98cba4	-0.07460716
41	0x3d2ae26e	0.041719846
42	0x3d30992a	0.04311482
43	0xbd02f20a	-0.031969108
44	0x3d0e735d	0.034777988
45	0x3cef643d	0.029222602
46	0x3d946860	0.072464705
47	0x3d9c773c	0.0763993
48	0x3d0b3e08	0.033994704
49	0xbbc3b23f	-0.0059721763
50	0xbdc23dcd	-0.09484444
51	0x3e3f8725	0.18703897
52	0x3e16c0a3	0.14721923
53	0x3deba18f	0.11505424
54	0x3d26cb0a	0.040720977
55	0xbe02a573	-0.12758426
56	0x3bedcd96	0.007257174
57	0x3d8aaab7	0.067708425
58	0x3db5db0a	0.08879669
59	0x3e0ab57e	0.13545796
60	0x3d3984cf	0.04529267
61	0x3dcdade5	0.100429334
62	0x3d135b83	0.035975944
63	0x3d77155e	0.06032311
64	0x3b670a5a	0.0035253973
65	0x3d8fb8ee	0.070176944
66	0x3d4123cd	0.047153283
67	0x3cd3b16c	0.025841437
68	0x3d0e33dd	0.03471743
69	0x3d39bb9c	0.045344934
70	0x3c4d07cb	0.012514065
71	0x3d1d2507	0.03836539
72	0x3c5b4eba	0.013385469
73	0x3c3d5d6d	0.011557919
74	0x3d120e13	0.035657953
75	0xbd90c8d6	-0.070695564
76	0x3d3efc37	0.04662725
77	0xbd8d71bb	-0.06906458
78	0xbd3a3841	-0.045463804
79	0x3ce7f303	0.02831412
80	0x3d9f4771	0.07777298
81	0xbe1a56b4	-0.15072137
82	0x3dfb6bef	0.12276446
83	0xbd54bd54	-0.05193837
84	0x3e01dd45	0.12682064
85	0x3bc20b2e	0.005921743
86	0x3c7320f7	0.014839402
87	0xbd22aafe	-0.039713852
88	0x3d767c2f	0.060177024
89	0xbd991321	-0.07474352
90	0xbdb2197b	-0.08696266
91	0xbe4c3198	-0.19940794
92	0xbdca815c	-0.098879546
93	0x3dcd0f8b	0.1001273
94	0x3d7774a7	0.060413983
95	0x3d8380dd	0.06421063
96	0xbe3e2647	-0.18569289
97	0xbca74792	-0.02041987
98	0xbdeae448	-0.114693224
99	0x3b2ce52c	0.0026381714
100	0x3d597829	0.05309311
101	0x3cbbca81	0.02292371
102	0x3e00e894	0.12588722
103	0x3e117b7f	0.14207266
104	0x3e1340a1	0.14380123
105	0x3def6710	0.116895795
106	0x3e072bd6	0.13200316
107	0xbe0dcba7	-0.13847218
108	0x3d56a5e4	0.0524043
109	0x3bb8e0de	0.0056420406
110	0xbc9e0b7c	-0.019292586
111	0xbb1f4bb0	-0.0024306588
112	0x3b9b96af	0.0047481875
113	0x3c1c3635	0.009534408
114	0x3cd4dbd6	0.025983732
115	0x3d89fc26	0.067375466
116	0x3d212d46	0.039349817
117	0xbd9fde93	-0.078061245
118	0xbe1dee85	-0.15423019
119	0xbe2ac8f0	-0.16678214
120	0xbe1b08c2	-0.1514006
121	0xbc2a8946	-0.010408705
122	0xbe137059	-0.14398326
123	0x3c7c24e9	0.015389659
124	0xbd5b68cd	-0.053566743
125	0xbd02b04a	-0.031906404
126	0x3c374a3b	0.0111871315
127	0x3bbdf9a0	0.00579758
128	0xbb980cc5	-0.004640194
129	0xbc192a62	-0.009348484
130	0x3b65ee6c	0.0035084737
131	0x3d209809	0.039207492
132	0xbd5ccf26	-0.05390849
133	0x3e012581	0.12611963
134	0x3e051f2b	0.13000171
135	0x3defeeaa	0.117154434
136	0xbe1e5c59	-0.15464915
137	0x3c67a788	0.014139064
138	0xbd75f3ea	-0.060047068
139	0xbe0465e7	-0.12929498
140	0x3d20e631	0.039282028
141	0x3cb09636	0.021556001
142	0x3dd19f8d	0.1023551
143	0x3d99ad92	0.07503809
144	0x3d770b59	0.060313556
145	0xbc0b076c	-0.008485656
146	0xbbaf8646	-0.005356583
147	0x3de2c62f	0.11072957
148	0x3dab80df	0.083741896
149	0xbc78274b	-0.015146087
150	0xbd8611f4	-0.06546393
151	0xbe2255e3	-0.15853076
152	0xbe06b89a	-0.13156357
153	0x3c8cd991	0.017193587
154	0xbc1dca36	-0.00963073
155	0x3e003356	0.12519583
156	0xbd03634b	-0.032077115
157	0x3e4108c5	0.18851002
158	0xbe18e220	-0.1493001
159	0x3dddd9b5	0.1083254
160	0x3ae74f07	0.0017647453
161	0xbc8a5756	-0.016887348
162	0x3e16ec30	0.14738536
163	0xbddc37ba	-0.107528165
164	0x3d186f5e	0.037215583
165	0xbd28182d	-0.04103868
166	0xbc08c4ba	-0.0083476845
167	0xbc159e64	-0.009132002
168	0xbdbe800e	-0.09301768
169	0x3cfa201e	0.030532893
170	0x3d97005f	0.07373118
171	0xbd12b0ec	-0.035813257
172	0x3c8f71ec	0.017510377
173	0x3d8dfc97	0.06932943
174	0xbd965a35	-0.073414244
175	0xbd260543	-0.04053236
176	0x3da82b9c	0.08211443
177	0xbdb5a982	-0.08870222
178	0x3c6870d3	0.014187056
179	0xbd4d3508	-0.050099403
180	0xbd846c94	-0.06466022
181	0x3ddfcc08	0.10927588
182	0x3dfc8818	0.12330645
183	0xbd19967b	-0.037497025
184	0x3c213bb5	0.009840895
185	0xbbc26434	-0.0059323553
186	0xbd276b19	-0.04087362
187	0xbe0c8b06	-0.13724908
188	0xbd156847	-0.0364764
189	0x3e4bbe1f	0.19896744
190	0x3d219739	0.039450858
191	0xbcfd43d2	-0.030916128
192	0x3dc1d265	0.09463958
193	0xbe35a927	-0.17740308
194	0xbde1e2b4	-0.11029568
195	0x3de5c0e1	0.11218429
196	0x3c963c39	0.018339263
197	0xbd881962	-0.066454664
198	0x3aef9af9	0.0018280438
199	0xbd754d3c	-0.05988811
200	0xbe056112	-0.1302531
201	0xbdb3816a	-0.08764918
202	0x3de2e7fd	0.110794045
203	0x3cbfd057	0.023414774
204	0xbc815fcc	-0.01579275
205	0xbd3ec5a3	-0.0465752
206	0x3d5250c3	0.05134655
207	0xbc97e26a	-0.01854058
208	0xbdf9e240	-0.12201357
209	0x3d3bc8c7	0.045845773
210	0x3db9856c	0.09058651
211	0x3dc90346	0.098150775
212	0x3ce736a2	0.028224293
213	0xbd73d86d	-0.05953257
214	0xbe1a2094	-0.1505149
215	0xbbdf2d2a	-0.006810804
216	0xbe081a48	-0.13291276
217	0xbd9f50b1	-0.077790625
218	0xbc62356e	-0.013806684
219	0xbdba482d	-0.09095798
220	0x3d6cf841	0.05785394
221	0x3c332f84	0.010936622
222	0xbd194d65	-0.037427325
223	0xbd0f89cb	-0.03504352
224	0xbe15c028	-0.14624083
225	0x3dad2489	0.08454234
226	0x3e04aae8	0.1295582
227	0x3cb56f34	0.022147752
228	0xbd6c2436	-0.05765172
229	0x3e46c748	0.19411957
230	0x3e15fc43	0.14647011
231	0xbd97ee38	-0.074184835
232	0xbc713639	-0.0147224
233	0x3e001269	0.12507023
234	0xbd7c0e39	-0.061537
235	0xbe33990a	-0.17538849
236	0xbda70ce7	-0.08156758
237	0x3d3bdbee	0.04586404
238	0x3d1f21a4	0.03885044
239	0x3e028c0c	0.12748736
240	0x3e28c638	0.16481864
241	0xbe3e10ae	-0.1856105
242	0xbe45dcc2	-0.19322494
243	0x3d66ca64	0.05634536
244	0xbd446c53	-0.04795487
245	0x3ae8cf55	0.0017761985
246	0xbcf80482	-0.030275587
247	0xbd7e4594	-0.062078074
248	0xbda87b5f	-0.08226656
249	0xbdc6b928	-0.097032845
250	0x3d1fcd12	0.03901393
251	0x3d98d508	0.074625075
252	0xbd837a90	-0.06419861
253	0x3e1d332d	0.15351553
254	0xbdbd1c55	-0.092339195
255	0xbc799612	-0.015233533

incep1.decoder.0.0.bias f4 [32]
0	0x3d05fbc2	0.032710798
1	0x3be53c8e	0.006995744
2	0x3d1307d1	0.035896126
3	0xbb8bf890	-0.0042715743
4	0xbd6f0f99	-0.058364484
5	0x3dcead98	0.10091704
6	0x3d6519fb	0.05593298
7	0x3dd025ce	0.10163461
8	0xbdbf7278	-0.09348005
9	0xbc11f0ed	-0.008907539
10	0xbdc33e2a	-0.09533341
11	0x3d9c1003	0.076202415
12	0x3db155c4	0.086589366
13	0xbcba37af	-0.02273163
14	0xbd192d78	-0.037396878
15	0x3d50e2cb	0.050997537
16	0x3dbbc957	0.09169262
17	0x3dab049c	0.083504885
18	0xbd98f344	-0.07468274
19	0xbda9c7fb	-0.08290096
20	0x3d8ffbab	0.07030424
21	0x3bb8dcdc	0.005641563
22	0x3d3ccad3	0.046091866
23	0x3d13be24	0.036070004
24	0xbd51e3aa	-0.051242508
25	0xbdcc1bd9	-0.09966249
26	0x3dbbfacc	0.09178695
27	0x3cb12b2c	0.021627031
28	0x3cc5315c	0.024071388
29	0xb9a0d07b	-0.00030672908
30	0x3d00bbb1	0.031428996
31	0xbca92f73	-0.020652508

incep1.decoder.0.1.weight f4 [32]
0	0x3f68998d	0.908593
1	0x3f84909e	1.0356634
2	0x3f7c2bf8	0.9850459
3	0x3f7bd6ed	0.98374826
4	0x3f8ec6c0	1.1154404
5	0x3f69805f	0.91211504
6	0x3f92f882	1.1482089
7	0x3f6d69ed	0.92739755
8	0x3f81154a	1.0084622
9	0x3f739a4d	0.9515732
10	0x3f754b09	0.9581762
11	0x3f837d3a	1.0272591
12	0x3f8c8615	1.0978419
13	0x3f6af1ee	0.91775405
14	0x3f633277	0.8874888
15	0x3f866da4	1.050221
16	0x3f728ca7	0.9474587
17	0x3f8d1258	1.1021223
18	0x3f68fbb3	0.9100906
19	0x3f867447	1.0504235
20	0x3f8d4b5e	1.1038625
21	0x3f80c120	1.0058937
22	0x3f641ae3	0.89103526
23	0x3f83da31	1.0300962
24	0x3f8ad938	1.084754
25	0x3f7f4323	0.9971182
26	0x3f6c7805	0.92370635
27	0x3f80bd46	1.0057762
28	0x3f691db6	0.9106096
29	0x3f6cd98d	0.92519456
30	0x3f74e398	0.9565978
31	0x3f6de9ab	0.92934674

incep1.decoder.0.1.bias f4 [32]
0	0x3e81b532	0.25333554
1	0x3d060e2a	0.03272835
2	0xbe08eb91	-0.13371111
3	0xbde4b731	-0.111677535
4	0x3ca061fa	0.019577969
5	0xbe16f8f9	-0.14743413
6	0x3c75d853	0.015005189
7	0x3e222a0d	0.15836354
8	0x3e14a80a	0.14517227
9	0xbdde3150	-0.10849249
10	0x3d22589a	0.03963528
11	0xbdc80fd6	-0.097686455
12	0x3dc23d9f	0.094844095
13	0xbda1aa00	-0.07893753
14	0xbe39503c	-0.18097013
15	0xbc387cf0	-0.011260256
16	0xbcd6723d	-0.02617752
17	0x3d7b42b0	0.061342895
18	0xbdc4c748	-0.096083224
19	0x3d323c36	0.043514453
20	0xbda8260e	-0.08210383
21	0xbdcfc1fe	-0.10144423
22	0xbe33f3f6	-0.17573532
23	0xbe04d06e	-0.12970135
24	0xbe026003	-0.12731938
25	0xbd6a54de	-0.057209842
26	0xbd90f57e	-0.07078074
27	0x3b5f1168	0.0034037475
28	0xba8c73e8	-0.0010715695
29	0xbe517b89	-0.20457281
30	0x3c1641b7	0.009170941
31	0xbcfd6574	-0.030932166

incep1.decoder.0.1.running_mean f4 [32]
0	0xbda89959	-0.08232374
1	0x3e70eb1c	0.23527187
2	0x3e855318	0.26039958
3	0xbe984667	-0.29741213
4	0x3dd9060c	0.105968565
5	0x3e58564a	0.21126667
6	0x3e8f9ab5	0.2804772
7	0xbe7e5b42	-0.248395
8	0xbf0c9b8a	-0.54924834
9	0x3e290478	0.16505611
10	0xbecc976b	-0.39959273
11	0x3e57ea17	0.21085392
12	0x3e9aaf69	0.30211952
13	0xbe1a46f8	-0.15066135
14	0xbdaee6d4	-0.08540121
15	0x3e2e5c6b	0.17027442
16	0xbe6f69cc	-0.23380202
17	0x3ec6608a	0.38745528
18	0xbed4e03f	-0.41577336
19	0x3e1c3be9	0.15257229
20	0x3e6fd867	0.23422395
21	0x3c91ece6	0.017813157
22	0x3e01f204	0.12689978
23	0x3e981d4a	0.29709846
24	0x3e360cd0	0.17778325
25	0xbbd1d434	-0.0064034704
26	0xbe832341	-0.25612834
27	0xbec125ee	-0.3772425
28	0xbd85e487	-0.06537729
29	0xbe0f0bbf	-0.13969325
30	0xbe633748	-0.22189057
31	0x3dcf52b3	0.101231955

incep1.decoder.0.1.running_var f4 [32]
0	0x4097de62	4.7458963
1	0x40cf1202	6.470948
2	0x40d53203	6.662355
3	0x408d8777	4.422786
4	0x40bae706	5.840701
5	0x405a3152	3.4092603
6	0x4133fb5c	11.248867
7	0x411e1807	9.880866
8	0x4107d579	8.489617
9	0x405ac8fb	3.4185169
10	0x4090f572	4.5299616
11	0x40e03fe2	7.007798
12	0x4140f4b0	12.059738
13	0x408d226f	4.4104533
14	0x4066451d	3.5979683
15	0x40e85d07	7.261356
16	0x410810aa	8.504068
17	0x411eda65	9.928319
18	0x40c5be80	6.1795044
19	0x40fd9118	7.9239616
20	0x4106fcc7	8.436713
21	0x404a8b1a	3.16474
22	0x40d9a417	6.8012805
23	0x41343f03	11.265384
24	0x413df9f6	11.873526
25	0x404971ad	3.1475632
26	0x40b427ca	5.629857
27	0x40935017	4.6035266
28	0x40a08e01	5.0173345
29	0x406d976d	3.7123673
30	0x40bc7c23	5.8901534
31	0x41098fe7	8.597632

incep1.decoder.1.0.weight f4 [32, 16, 3]
0	0xbbcdcc06	-0.006280425
1	0x3cff13a6	0.031137299
2	0xbe3204bf	-0.17384623
3	0x3d06fa9d	0.032953847
4	0x3df41ae2	0.1191919
5	0xbe1b004f	-0.15136836
6	0x3e68ebe9	0.22746243
7	0x3d442fee	0.04789727
8	0xbd9145e2	-0.07093407
9	0x3cc30769	0.023807244
10	0xbe0fdb73	-0.14048557
11	0xbe1d1d09	-0.15343107
12	0x3cb42e94	0.021994866
13	0xbc80c34b	-0.015718123
14	0x3d122876	0.035683118
15	0x3db67518	0.089090526
16	0xbdbd379d	-0.09239123
17	0xbe1891c7	-0.1489936
18	0xbe2a1200	-0.16608429
19	0xbdf360bd	-0.11883686
20	0x3d61bdcd	0.05511265
21	0xbd908135	-0.07055894
22	0x3dd38315	0.10327736
23	0x3d0c6cd8	0.03428349
24	0x3c1c4c9b	0.009539749
25	0x3cc92abc	0.02455651
26	0xbdf68026	-0.12036161
27	0x3db04864	0.086075574
28	0xbd91d932	-0.07121505
29	0x3dc82b20	0.097738504
30	0xbe183561	-0.14864112
31	0xbc7153c3	-0.014729443
32	0xbe033c5c	-0.12815994
33	0xbe3f6ae9	-0.18693127
34	0x3e134587	0.14381991
35	0x3a766d07	0.00094004016
36	0xbadc6332	-0.001681423
37	0x3dc3acac	0.09554419
38	0xbdb63479	-0.08896727
39	0x3d9c37bf	0.0762782
40	0xbc06818b	-0.008209596
41	0xbdf725ca	-0.120677546
42	0x3cfb09e5	0.030644367
43	0xbd8d3486	-0.06894784
44	0xbd937a0b	-0.07201012
45	0xbe3235e6	-0.17403373
46	0xbd5fbe08	-0.054624587
47	0xbde0eac1	-0.10982276
48	0x3e0e8fe1	0.13922073
49	0x3e21fe92	0.15819767
50	0xbd4648db	-0.048409324
51	0x3ce95acb	0.028485676
52	0xbd2c6127	-0.04208484
53	0xbe1c60ef	-0.15271352
54	0x3e663ab0	0.22483325
55	0xbb9974db	-0.0046831197
56	0x3d8a3a74	0.0674943
57	0xbd09aa75	-0.033609826
58	0x3d815bfc	0.06316373
59	0xbdd5926d	-0.10428319
60	0x3e5105b4	0.20412332
61	0x3d6ac8c2	0.057320364
62	0x3d9f2e43	0.077724956
63	0xbe525d73	-0.2054346
64	0xbdcbf427	-0.09958678
65	0x3da175dc	0.07883808
66	0xbdbbe357	-0.09174221
67	0x3d0f1c73	0.03493924
68	0xbdcd936c	-0.10037884
69	0xbe1f0707	-0.15530024
70	0xbd6a7abd	-0.05724596
71	0x3ddd91c6	0.1081882
72	0x3e10f17b	0.14154617
73	0xbbc3393f	-0.005957752
74	0x3e1f8db9	0.15581407
75	0xbdb8e0d7	-0.0902726
76	0xbe25aab3	-0.16178398
77	0xbbeeb933	-0.007285261
78	0x3cde3a2f	0.027127353
79	0xbe22dc26	-0.15904292
80	0x3e81dd5a	0.2536419
81	0xbc85cc4a	-0.016332764
82	0xbccf4199	-0.025299834
83	0x3db7378f	0.08946144
84	0xbe6825fe	-0.22670743
85	0x3e159597	0.14607845
86	0x3def9274	0.116978556
87	0xbe573cb2	-0.21019247
88	0xbe648f69	-0.22320332
89	0x3d4bd5bb	0.049764376
90	0x3d0adc59	0.033901546
91	0x3dd435c3	0.10361817
92	0xbcc8cb6c	-0.024511062
93	0x3c4eb08e	0.012615336
94	0x3c89581c	0.016765647
95	0xbad4730f	-0.0016208607
96	0x3d083bf5	0.033260304
97	0xbdb3b08b	-0.08773907
98	0xbda95065	-0.08267287
99	0x3d4b21b7	0.0495927
100	0xbd0a41ac	-0.033754036
101	0x3d6a8c14	0.057262495
102	0xbd511adb	-0.051051002
103	0xbe7b5be6	-0.24546775
104	0xbe39e3f5	-0.18153365
105	0xbc082aee	-0.0083110165
106	0xbd007471	-0.031361047
107	0x3de936e9	0.113874264
108	0x3cac8d3a	0.021063436
109	0x3d19bd67	0.037534144
110	0x3e005a25	0.12534387
111	0xbdbcf126	-0.09225683
112	0xbd244850	-0.040108025
113	0xbe20175a	-0.15633908
114	0xbdcc8885	-0.099869765
115	0xbda658d5	-0.08122412
116	0xbe1f997e	-0.15585896
117	0xbdf43ff5	-0.11926261
118	0xbd3dafb2	-0.046310134
119	0xbe12005d	-0.14257951
120	0x3cd26f20	0.025687754
121	0x3d184811	0.037178103
122	0x3c1ce312	0.009575622
123	0x3e148374	0.1450327
124	0x3d34acb3	0.04411001
125	0x390d293d	0.0001346217
126	0x3e0bf9d4	0.1366952
127	0x3dac401d	0.08410666
128	0x3ca63648	0.020289555
129	0xbd970732	-0.07374419
130	0xbd50d634	-0.05098553
131	0xbd9dacc9	-0.07698972
132	0xbe69b6c1	-0.22823621
133	0xbdc7c032	-0.09753455
134	0xbe6f3a9e	-0.23362204
135	0xbdf07389	-0.117407866
136	0xbda71d7a	-0.08159919
137	0xbe110970	-0.14163756
138	0xbe5489bb	-0.20755665
139	0x3d9e4585	0.077281035
140	0x3acc68bf	0.0015595182
141	0x3d83f0b2	0.06442393
142	0xbe6c9619	-0.23104133
143	0xbd72ecfb	-0.059308033
144	0xbdb8a253	-0.09015336
145	0xbccb4d82	-0.024817232
146	0xbdb115b2	-0.08646716
147	0x3e1b3c3b	0.15159695
148	0x3d424893	0.047432493
149	0xbddd64d4	-0.10810247
150	0xbe4c1ea3	-0.19933562
151	0x3da8904d	0.08230648
152	0x3e3bfcd6	0.18358168
153	0x3d838f8b	0.06423863
154	0x3dd91cb8	0.10601181
155	0x3d4f326b	0.05058519
156	0x3d117a47	0.035517003
157	0xbe384f7e	-0.17999074
158	0xbdfaff45	-0.1225572
159	0xbd65389c	-0.05596219
160	0x3e0fe469	0.14051975
161	0xbdde844d	-0.10865078
162	0x3e372e24	0.17888695
163	0xbc3f78a6	-0.01168648
164	0xbd6ac609	-0.057317767
165	0x3d1c2f1b	0.03813086
166	0x3db5d130	0.0887779
167	0xbda5ff40	-0.08105326
168	0xbd11ff31	-0.03564376
169	0x3db4fd35	0.08837358
170	0xb9c42e45	-0.00037418507
171	0xbd08766d	-0.033316065
172	0xbdcca752	-0.09992851
173	0x3d49c91c	0.04926406
174	0x3dc4a2e7	0.09601384
175	0xbc407fd8	-0.01174923
176	0xbe4192bd	-0.18903632
177	0xbcafa9b4	-0.021443225
178	0x3ddb8882	0.10719396
179	0xbdab20ad	-0.08355842
180	0xbe0816de	-0.13289973
181	0xbcd6e86d	-0.026233876
182	0xbda45c4f	-0.08025419
183	0xbd6eab9a	-0.05826912
184	0xbd0aa913	-0.033852648
185	0x3e2d2166	0.16907272
186	0xbd59e2b4	-0.053194717
187	0x3d35988e	0.04433494
188	0xbde49949	-0.11162049
189	0x3c913bcd	0.01772871
190	0xbe378017	-0.17919956
191	0x3cdbb1da	0.026818205
192	0xbdb24150	-0.087038636
193	0xbe1de01b	-0.1541752
194	0xbe0e2e10	-0.13884759
195	0x3e436aac	0.19083661
196	0x3e114f84	0.14190489
197	0x3d600019	0.054687593
198	0xbe83b63d	-0.25724974
199	0xbdf8366e	-0.12119757
200	0x3de9e6ea	0.114209965
201	0x3ca41b20	0.020032465
202	0x3df4e4dd	0.11957715
203	0xbda012df	-0.078160994
204	0x3de67307	0.112524085
205	0x3c053767	0.008130885
206	0x3d974d2f	0.073877685
207	0xbe321502	-0.17390826
208	0x3e157c24	0.14598137
209	0xbe01c197	-0.12671505
210	0xbd54d05a	-0.051956512
211	0x3daecff4	0.08535758
212	0xbdabc588	-0.083872855
213	0xbe039267	-0.12848817
214	0xbddcea20	-0.10786843
215	0x3c77d479	0.015126341
216	0x3e6f2da9	0.23357262
217	0x3d8b6387	0.06806093
218	0xbda7aefe	-0.08187674
219	0xbe53e378	-0.20692241
220	0xbc1492ba	-0.009068185
221	0x3da0333f	0.078222744
222	0x3e50ad13	0.20378523
223	0x3dbdb4ff	0.09263038
224	0x3c5f61d3	0.013634163
225	0x3a8a05d0	0.0010530297
226	0xbd73395b	-0.05938087
227	0xbc34d17c	-0.011036273
228	0xbdf670e5	-0.12033252
229	0x3d19b51c	0.037526235
230	0x3dbcb26d	0.092137195
231	0xbe10beb3	-0.14135246
232	0xbe36b954	-0.17844135
233	0xba810032	-0.0009841977
234	0x3d4f0bd3	0.050548386
235	0xbe26a650	-0.1627438
236	0xbe179165	-0.14801557
237	0xbc68b67b	-0.014203663
238	0xbe2a202f	-0.1661384
239	0xbd6902af	-0.056887325
240	0x3dabea8c	0.08394346
241	0xbc34552a	-0.011006633
242	0x3a901151	0.0010991489
243	0xbdabe3ec	-0.08393082
244	0xbb326a7d	-0.0027224116
245	0xbe046e13	-0.12932615
246	0x3dfcc308	0.12341887
247	0xbdf287f3	-0.118423365
248	0xbdee51c9	-0.11636693
249	0xbe6ea9c6	-0.23306951
250	0x3d591753	0.05300076
251	0xbdca1f1e	-0.098692164
252	0xbdca3edc	-0.09875271
253	0x3ca16984	0.019703634
254	0x3e4d666e	0.20058605
255	0xbda4c0a0	-0.08044553

incep1.decoder.1.0.bias f4 [16]
0	0xbd253796	-0.040336214
1	0x3e20d0c0	0.15704632
2	0x3b420825	0.0029606905
3	0xbd9aec2f	-0.0756458
4	0x3be67c97	0.0070338952
5	0xbda37f57	-0.079832725
6	0xbcae39a3	-0.021267718
7	0x3d8eb856	0.06968753
8	0x3d6507e6	0.055915736
9	0xbd6ba6f2	-0.05753226
10	0x3d9b56a6	0.07584886
11	0x3c5f0a03	0.013613227
12	0xbd7156ed	-0.05892079
13	0x3d0d3769	0.03447667
14	0x3d1be2cc	0.038058087
15	0x3df2df07	0.11858945

incep1.decoder.1.1.weight f4 [16]
0	0x3f57c73e	0.84288394
1	0x3f6356d5	0.8880437
2	0x3f5917a8	0.8480172
3	0x3f699a96	0.91251504
4	0x3f50f2d8	0.8162055
5	0x3f689b2c	0.90861773
6	0x3f6d68ff	0.92738336
7	0x3f6972c0	0.9119072
8	0x3f5e78f6	0.8690332
9	0x3f5f7c36	0.87298906
10	0x3f6e99a3	0.9320318
11	0x3f6403f5	0.8906854
12	0x3f6b7439	0.91974217
13	0x3f67300d	0.90307695
14	0x3f6a121e	0.91433895
15	0x3f6b0665	0.9180663
